TourifyRecommender_model.tflite (tflite, 35216 bytes, 8 tensors)

model/user_Embedding/embedding_lookup f4 [200, 5]
0	0xbbe11aab	-0.006869634
1	0xbd4c4d1c	-0.049878225
2	0xbcc6fe0a	-0.024291057
3	0x3cc1886a	0.023624618
4	0xbbe4962d	-0.00697591
5	0x3b017514	0.0019753622
6	0xbc8c31be	-0.017113563
7	0xbd0c8260	-0.034304023
8	0xbc944a31	-0.018101783
9	0xbc363d62	-0.011123033
10	0xbb2bdd82	-0.0026224558
11	0xbd1dfa97	-0.03856906
12	0x3d28cdad	0.041211773
13	0xbc6c0458	-0.0144053325
14	0x3d34e5e0	0.04416454
15	0xbb6ca16e	-0.0036106962
16	0x3c98c344	0.018647797
17	0xbcccb6ee	-0.024989571
18	0x3d06a6ca	0.032873906
19	0x3c547fbc	0.012969907
20	0x3c9d4abb	0.019200673
21	0x3d3acc93	0.045605253
22	0x3d0bfc2f	0.034176048
23	0x3ce787df	0.02826303
24	0x3cbb7279	0.022881733
25	0xbc626d7c	-0.013820048
26	0x3c6b01fa	0.014343733
27	0xbd15cf5a	-0.0365747
28	0xbd22a900	-0.039711952
29	0xbc681ab0	-0.014166519
30	0xbcf9a760	-0.030475318
31	0xbbf52463	-0.0074811443
32	0x3cb405e4	0.021975465
33	0xbbb2218b	-0.0054361275
34	0x3c75d6fa	0.015004868
35	0xbd1830a1	-0.03715575
36	0xbc6b6392	-0.014367001
37	0xbc248242	-0.0100408215
38	0x3ce990cb	0.028511425
39	0x3ca9194b	0.020641943
40	0xb9994e51	-0.00029240784
41	0xbcf0076a	-0.02930041
42	0x3bb77680	0.005598843
43	0xbd25db69	-0.04049245
44	0x3d0352c6	0.03206136
45	0x3d0a81ac	0.03381507
46	0x3be873f7	0.007093902
47	0xbc888f85	-0.016669998
48	0xbccf02df	-0.025269924
49	0xbc17d2ee	-0.009266598
50	0x3d199829	0.037498627
51	0xbcc61b85	-0.024183044
52	0xbcc04c0e	-0.023473766
53	0x3d347cd1	0.044064347
54	0xbd01f34f	-0.031726178
55	0x3d39974b	0.0453103
56	0xbd34a781	-0.044105057
57	0xbcd73508	-0.026270404
58	0xbced658f	-0.028979091
59	0x3cfe9b1e	0.031079825
60	0xbd1621f6	-0.03665348
61	0xbcd5cc9f	-0.026098548
62	0x3cdd420f	0.027009038
63	0x3c93c914	0.018040217
64	0x3d16df3e	0.036833994
65	0xbc9f0d21	-0.01941544
66	0xbb98f96e	-0.004668406
67	0x3d450e24	0.04810919
68	0xbd2b4465	-0.041813273
69	0xbc803f3d	-0.015655154
70	0xbc29669a	-0.0103394035
71	0x3b1abd12	0.002361123
72	0xbc7d182e	-0.015447659
73	0xbd2b3c55	-0.041805584
74	0xbc3c002d	-0.011474651
75	0xbd1beac5	-0.03806569
76	0x3ca34c42	0.019933823
77	0x3cb75789	0.022380607
78	0x3c3dc1fa	0.011581892
79	0x3b512e0c	0.0031918315
80	0x3c2e1ca7	0.010626948
81	0xbc10eff3	-0.008846271
82	0x3cc02866	0.023456763
83	0x3d27a452	0.040928192
84	0x3cd21479	0.025644528
85	0x3c743246	0.014904564
86	0xbd22ff3d	-0.039794195
87	0xbd20c174	-0.03924699
88	0x3c8f78a3	0.017513579
89	0xbd0c1a22	-0.03420461
90	0x3caef4a4	0.021356888
91	0xbd0ee330	-0.03488463
92	0xbcedb429	-0.029016571
93	0xbc45aecd	-0.012065602
94	0x3ca0d266	0.019631576
95	0xbd4d1e41	-0.05007768
96	0x3d47dac8	0.04879263
97	0xbcf194bb	-0.029489866
98	0x3d0210c4	0.03175427
99	0x3c06a828	0.0082188025
100	0x3ca0cf52	0.019630108
101	0x3d299f58	0.041411728
102	0x3c84cd6a	0.01621123
103	0x3d3cff64	0.046141997
104	0x3cb27483	0.021784073
105	0xbd1ce02f	-0.038299736
106	0xbd182200	-0.0371418
107	0xbc3fbf1f	-0.011703282
108	0xba0dbf2a	-0.0005407209
109	0xbd00deff	-0.031462666
110	0xbd3c8b76	-0.046031438
111	0xbc6aa70d	-0.014322055
112	0xbcaaa6a1	-0.020831408
113	0x3ceb641d	0.028734261
114	0xbb3bac24	-0.002863654
115	0xbd4ff9a0	-0.05077517
116	0xbd556741	-0.052100424
117	0xbcf97bf7	-0.030454619
118	0x3d1264fe	0.035740845
119	0x3c4fa0c8	0.012672611
120	0x3cb4680b	0.022022268
121	0xbbabf552	-0.0052477503
122	0x3bbec371	0.0058216383
123	0xbce76a3c	-0.028248899
124	0x3d725349	0.05916146
125	0xbcceea4c	-0.025258206
126	0x39e40d81	0.0004349761
127	0xbc75c6d1	-0.015001015
128	0xbd1653cd	-0.036701012
129	0xbcb8dfe1	-0.022567691
130	0x3c94295a	0.018086124
131	0xbb93be83	-0.0045087948
132	0x3cb9d220	0.022683203
133	0xbd4daa4c	-0.050211236
134	0x3d085141	0.033280615
135	0xbbca4dd3	-0.006173828
136	0xbb9beb55	-0.0047582784
137	0x3d857315	0.06516091
138	0x3ca613c9	0.020273106
139	0xbc947605	-0.018122682
140	0x3bf36cab	0.0074287257
141	0xbcc64996	-0.02420501
142	0xbc83deee	-0.016097512
143	0x3d329e2c	0.043607876
144	0x3d28c0b8	0.041199416
145	0xbcf614cd	-0.030039215
146	0xbd474d03	-0.04865743
147	0xbc1ece0c	-0.00969268
148	0xbcb9d57a	-0.022684801
149	0x3d2cd82d	0.04219835
150	0xbd4167d8	-0.047218174
151	0xbc9dd7df	-0.019267974
152	0xbbea4447	-0.0071492526
153	0xbd029073	-0.03187604
154	0xbb6190a1	-0.003441848
155	0x3c581bf0	0.013190255
156	0x3c9c9abf	0.019116757
157	0xbd1ceb28	-0.0383102
158	0x3c86d11e	0.016457137
159	0x3d0fd225	0.03511252
160	0xbd3f532b	-0.046710175
161	0x3c4a9c0c	0.012366306
162	0x3cc27917	0.02373938
163	0x3c7b1065	0.015323733
164	0x3cf001fa	0.029297817
165	0xbce4c70c	-0.027926944
166	0xbca6b270	-0.020348758
167	0xbd1b577d	-0.037925232
168	0xbc3f983a	-0.0116940085
169	0x3d2a6230	0.041597545
170	0x3d1219e9	0.03566924
171	0xbd0ee981	-0.034890655
172	0x3c810dc1	0.015753629
173	0x3cd23b1d	0.025662953
174	0x3c812d42	0.01576865
175	0xbba5749c	-0.0050493013
176	0xba873bb6	-0.0010317478
177	0xbcc09f67	-0.023513509
178	0x3c872356	0.016496342
179	0xbcaef204	-0.021355636
180	0xbcb6692a	-0.022266943
181	0xbbeb17da	-0.007174474
182	0xbce8c4e0	-0.02841419
183	0x3a407d3d	0.00073428807
184	0x3d0c97b9	0.03432438
185	0xbc3d0705	-0.011537318
186	0x3d3a782f	0.045524772
187	0xbd215a54	-0.039392784
188	0x3d264220	0.040590405
189	0x3d364eb3	0.044508647
190	0xbb1a1649	-0.0023511818
191	0x3c76f6e0	0.015073508
192	0xbd00d5f0	-0.031454027
193	0x3d253897	0.04033717
194	0x3c590dbb	0.0132479025
195	0xbc066fd8	-0.008205377
196	0xbbabb45c	-0.0052400064
197	0x3cd77445	0.026300559
198	0x3ca5de3e	0.020247575
199	0xbcc879a4	-0.024472065
200	0x3cf5cdbb	0.030005326
201	0xbc866683	-0.016406303
202	0xba6b5e1a	-0.0008978561
203	0x3bb29e2c	0.0054509845
204	0x3d3e0c7f	0.046398636
205	0x3b9bf5c9	0.0047595245
206	0x3c841887	0.016124977
207	0x3c6e1061	0.014530272
208	0x3aab87db	0.0013086753
209	0x3ce0d71d	0.027446324
210	0xbd5f9181	-0.054582123
211	0xbccbf463	-0.024896806
212	0x3b9fd89a	0.004878116
213	0x3cd8b253	0.02645222
214	0x3cbd4fd1	0.023109348
215	0xbca029a3	-0.019551104
216	0xbd27578f	-0.040854987
217	0xbd09b07c	-0.033615574
218	0x3d28e2e5	0.04123201
219	0xbb15c562	-0.0022853245
220	0xbd55f1c7	-0.05223253
221	0xbd2800cf	-0.041016396
222	0x3d131738	0.035910815
223	0x3d11269e	0.03543722
224	0x3ccd0b57	0.025029821
225	0xbbc83e47	-0.0061109397
226	0xba3222cb	-0.00067953457
227	0x3d220d61	0.03956354
228	0x3d29f33e	0.04149174
229	0x3d201232	0.039079852
230	0xbc7f5f0d	-0.015586627
231	0x3c8a255d	0.01686352
232	0xbca32a47	-0.01991762
233	0x3c4413db	0.011967625
234	0x3d13e483	0.036106598
235	0xbd1fcabf	-0.039011713
236	0xbd2f6f0e	-0.04283052
237	0xbd26df13	-0.040740084
238	0x3cb339d5	0.021878162
239	0x3d4dca9b	0.050242048
240	0x3c23df82	0.010002019
241	0x3d3140b5	0.0432746
242	0xbcc30e7c	-0.023810618
243	0xbcb0077f	-0.02148795
244	0xbca08a63	-0.019597238
245	0xbc8085dc	-0.01568883
246	0xbc15aa18	-0.009134792
247	0xbd0adec9	-0.03390387
248	0x3d22131f	0.039569017
249	0xbcb5874e	-0.022159245
250	0x3c4aa2f2	0.012367951
251	0xbd3979df	-0.04528224
252	0x3ca11faf	0.019668428
253	0x3b502bb0	0.003176432
254	0x3a3c7d32	0.00071902864
255	0xbd46fe88	-0.048582584

model/tourism_Embedding/embedding_lookup f4 [763, 5]
0	0x3d4c0c41	0.049816374
1	0xbc0826b3	-0.008310008
2	0xbd12629f	-0.035738584
3	0xbcfc1716	-0.030772727
4	0xbd04e04b	-0.032440465
5	0xbc9a489f	-0.018833457
6	0x3ace17e4	0.0015723673
7	0x3cd0a067	0.02546711
8	0x3ce18f64	0.027534194
9	0xbbb9ef1e	-0.005674257
10	0xbd16e17c	-0.036836132
11	0xbcb53f1c	-0.02212482
12	0x3c19ed3e	0.009394942
13	0xbc20b09d	-0.009807733
14	0x3c4ed827	0.012624777
15	0xbd0b0680	-0.033941746
16	0xbcc94906	-0.024570953
17	0x3d06f7d5	0.032951195
18	0xbc1c5c32	-0.009543465
19	0xbc3fc8aa	-0.011705557
20	0x3d4f5c43	0.050625097
21	0xbd3c192b	-0.04592244
22	0x3c9e7fb9	0.019348012
23	0x3d3423c5	0.043979425
24	0x3c214cc0	0.009844959
25	0xbd166214	-0.03671463
26	0x3ca935c6	0.020655524
27	0xbc41ef24	-0.011836801
28	0x3b7cb7e4	0.0038561756
29	0x3b1c9558	0.0023892727
30	0x3d135571	0.035970155
31	0x3d07c8eb	0.033150595
32	0x3c571c1a	0.0131292585
33	0x3bc0fe9a	0.005889726
34	0xbc329e87	-0.010902054
35	0xbd294a8f	-0.04133087
36	0x3c94c4e3	0.01816029
37	0x3c83111b	0.015999367
38	0x3a1b53bb	0.00059252576
39	0xbd56717f	-0.052354332
40	0x3bd04955	0.006356398
41	0x3c90ae59	0.01766126
42	0xbd309150	-0.04310733
43	0xbc5301af	-0.012878819
44	0xb982f474	-0.00024977664
45	0xbd01753e	-0.03160595
46	0xbd22b238	-0.039720744
47	0xbc82d09d	-0.015968615
48	0x3c9d8075	0.019226292
49	0x3d002f30	0.031295
50	0x3cc2a286	0.023759138
51	0xbc4c8221	-0.012482197
52	0x3ca6b16e	0.020348277
53	0x3ad053a2	0.0015894065
54	0xbcbc4c1e	-0.022985514
55	0xbcef915a	-0.029244114
56	0x3c91fb75	0.0178201
57	0xbc9a2049	-0.018814223
58	0xbb05d43f	-0.0020420698
59	0xbc154c36	-0.009112408
60	0x3d1e0e0a	0.038587607
61	0xbcca0de3	-0.024664825
62	0x3c986707	0.018603815
63	0xbd0c85b7	-0.034307208
64	0xbcfdc8f9	-0.03097962
65	0x3c9c381a	0.01906972
66	0xbd2f3bd7	-0.042781677
67	0xba642b82	-0.0008703993
68	0x3cb5d6e2	0.02219719
69	0xbd00b6fe	-0.031424515
70	0xbd1a37ac	-0.03765075
71	0xbc3e60bb	-0.011619742
72	0x3d024726	0.031806134
73	0xbc98817d	-0.018616432
74	0xbd5f3fc0	-0.054504156
75	0xbd2e6043	-0.04257227
76	0xbd37ca8e	-0.044870906
77	0x3c9817c3	0.018566018
78	0xbd4504ad	-0.048100162
79	0x3c8ae0a4	0.01695282
80	0xbd0aec54	-0.033916786
81	0xbc334709	-0.010942229
82	0x3ce3b690	0.027797014
83	0xbcde0bc2	-0.027105216
84	0xbcdf73f1	-0.027276965
85	0x3d4e0589	0.050298247
86	0x3cafda0b	0.021466276
87	0xbd068860	-0.0328449
88	0xbd403909	-0.046929393
89	0x3a4168e7	0.00073779974
90	0x3d1d6fbf	0.038436648
91	0xbd54c26c	-0.051943228
92	0x3bc48ef1	0.0059984853
93	0xbceed298	-0.029153153
94	0xbc8a69d4	-0.016896166
95	0x3c1329cf	0.008982136
96	0x3d08afe0	0.033370852
97	0xbc8ddd3a	-0.017317403
98	0x3d2b4c97	0.04182109
99	0xbcafa03c	-0.02143871
100	0xbc8a2d18	-0.016867206
101	0x3b06ab71	0.0020548964
102	0x3d144a4e	0.036203675
103	0xbcb7838d	-0.022401595
104	0x3b83bc36	0.004020239
105	0xbcde5f2f	-0.027144996
106	0xbd387e27	-0.045042183
107	0xbcb2d2f0	-0.021829098
108	0x3cdc2f34	0.026877977
109	0x3d32faf2	0.04369635
110	0xbb8c609e	-0.0042839786
111	0x3cf60955	0.030033747
112	0xbd095dcc	-0.033536717
113	0x3d045bd8	0.03231415
114	0xbcca78ef	-0.024715869
115	0x3cd1e7a1	0.025623145
116	0x3c0781e0	0.008270711
117	0x3ccc92f0	0.024972409
118	0xbd2051a3	-0.039140355
119	0x3d0b2ce8	0.033978373
120	0x3c70b8d6	0.014692506
121	0xbcdb4319	-0.026765393
122	0x3d19e615	0.03757294
123	0x3cb8c788	0.022556081
124	0xbc37d7fc	-0.011220928
125	0xbce32a64	-0.027730174
126	0xbd64ed4d	-0.05589037
127	0x3cf7ee75	0.030265072
128	0x3c0c3c78	0.008559339
129	0xbcb0c904	-0.021580227
130	0xbbb228a3	-0.005436973
131	0x3cb64913	0.022251641
132	0x3c509284	0.012730245
133	0xbcdea1a6	-0.02717669
134	0xbd1865d3	-0.037206482
135	0x3cdbc109	0.026825445
136	0x3d4fc2ee	0.05072301
137	0xbd24bd2a	-0.040219463
138	0xbc46b0a1	-0.012127073
139	0xbcc172aa	-0.023614246
140	0xbca0cf32	-0.019630048
141	0x3d3cfb7f	0.046138283
142	0xbcba9dd8	-0.022780344
143	0x3c681373	0.014164793
144	0xbcbb2564	-0.022844978
145	0xbd014af0	-0.031565607
146	0x3d1bb699	0.038015936
147	0x3b878ee8	0.004136909
148	0x3c7c51cf	0.015400364
149	0xbcb00d64	-0.02149076
150	0x3d1eabd2	0.03873808
151	0x3b981784	0.004641475
152	0xbd029b81	-0.03188658
153	0x3c8d02e1	0.017213287
154	0xbcaa241e	-0.020769175
155	0xbca79a68	-0.020459369
156	0xbce681bf	-0.02813804
157	0x3d4f9f33	0.050688934
158	0xbd1b6102	-0.03793431
159	0x3bdd26d6	0.0067490144
160	0xbd182d2c	-0.037152454
161	0x3c0cbfc2	0.0085906405
162	0xbcfc1676	-0.030772429
163	0x3ccc4ba7	0.024938418
164	0x3c2a3220	0.010387927
165	0xbd30bea3	-0.043150555
166	0x3cf40eb6	0.029792171
167	0x3d0c9045	0.034317274
168	0xbc960d4e	-0.018316891
169	0xbbcde990	-0.0062839463
170	0x3d0bea91	0.034159247
171	0x3bd9f6cc	0.006651735
172	0x3d1d3771	0.03838295
173	0xbcd0a6bf	-0.025470136
174	0xbc9e9052	-0.019355927
175	0x3ceb06d4	0.02868978
176	0x3ba222a8	0.004947979
177	0xb9d915cd	-0.00041405708
178	0xbd59ddd6	-0.053190075
179	0x3cd8aa3f	0.026448367
180	0x3c71f0b4	0.014766861
181	0x3d3040eb	0.04303066
182	0xbb897bd4	-0.0041956697
183	0x3d0787fb	0.033088665
184	0x3d1c3022	0.03813184
185	0xbd07e5e9	-0.033178244
186	0xbb91e0ab	-0.0044518313
187	0x3cf66e6a	0.030081946
188	0xb8df993c	-0.00010662011
189	0x3b96b999	0.0045997617
190	0x3cbf0959	0.023319887
191	0xbc89fff0	-0.016845673
192	0x3cfbbe33	0.030730342
193	0x3c9f120b	0.019417783
194	0xbaffe790	-0.0019523967
195	0x3d1fba73	0.03899617
196	0xbcb2e607	-0.021838201
197	0xbca791d2	-0.020455275
198	0xbcbc6610	-0.022997886
199	0x3c89f623	0.016841
200	0xbd33406e	-0.043762617
201	0x3cb0cd39	0.021582233
202	0x3d0b4722	0.034003384
203	0xbba97fb8	-0.005172696
204	0xbce96296	-0.028489392
205	0xbd2c755f	-0.04210412
206	0x3d4ed13b	0.050492506
207	0xbb758a7b	-0.0037466574
208	0x3ca37160	0.019951522
209	0xbc68fc82	-0.014220359
210	0x3ccb0320	0.024781764
211	0x3d0ce06f	0.034393724
212	0xbc493aec	-0.0122821145
213	0xbbffafd7	-0.007802944
214	0x3d3c3ce2	0.0459565
215	0x3c979fc1	0.018508794
216	0xbd014161	-0.03155649
217	0x3cf0445d	0.029329473
218	0x3c8c8194	0.017151631
219	0xbb085f7c	-0.0020808866
220	0xbc961def	-0.01832482
221	0xbd3ecd66	-0.046582602
222	0xbd2b73f5	-0.041858632
223	0xbd27d470	-0.04097408
224	0xbd0299ad	-0.031884838
225	0x3d22684d	0.03965025
226	0xbca197dd	-0.019725734
227	0xbc27a7a3	-0.010232839
228	0x3ce34f67	0.027747823
229	0xbd8ab82b	-0.067734085
230	0x3d1cb180	0.038255215
231	0x3d00abef	0.03141397
232	0xbb50dcd4	-0.0031869905
233	0x3d164b4a	0.036692895
234	0x3d39e179	0.045381043
235	0xbcae46d1	-0.021274002
236	0x3b8a54ba	0.004221526
237	0x3c9db072	0.019249175
238	0x3cda1ff0	0.026626557
239	0xbcdb69d5	-0.026783863
240	0xbd070de4	-0.03297223
241	0x3bf479ab	0.007460793
242	0x3c663706	0.014051205
243	0xbc0e1b35	-0.008673479
244	0xbd20ed80	-0.039288998
245	0x3d40e9db	0.047098022
246	0xbcb97959	-0.02264087
247	0xbd146748	-0.03623131
248	0x3c1a9ecc	0.009437274
249	0x3c8b3420	0.016992629
250	0xbcf224df	-0.029558597
251	0x3c5933f5	0.013257016
252	0x3cfd64a9	0.030931788
253	0xbd3597e9	-0.044334326
254	0xba305e61	-0.0006727931
255	0xbcb764c5	-0.022386918

model/dense_1/BiasAdd/ReadVariableOp f4 [32]
0	0x3c58fff5	0.013244619
1	0x3d0b0b45	0.033946294
2	0xbc6e7d10	-0.014556184
3	0x3d218a86	0.039438747
4	0x3c9ddd12	0.019270454
5	0x3c35eabb	0.011103327
6	0x3ceeabef	0.029134719
7	0xbb8c38a4	-0.004279213
8	0xbc92f8d9	-0.017940925
9	0x3cfad5ed	0.030619586
10	0x3d642f5d	0.05570923
11	0xbbc32544	-0.00595537
12	0xbc1f6912	-0.009729641
13	0xbc61d837	-0.01378446
14	0xbb981dc6	-0.004642221
15	0x3d134f5f	0.035964366
16	0x3d54496b	0.05182783
17	0xbc0c8457	-0.008576474
18	0xbc58224d	-0.013191772
19	0x3c67589e	0.014120249
20	0x3d8f4b8b	0.069968306
21	0xbc752960	-0.014963478
22	0x3c3003c1	0.0107430825
23	0xbcb37e1c	-0.02191072
24	0xbcaa538f	-0.020791797
25	0xbbd89db0	-0.0066105947
26	0xbc20fded	-0.009826166
27	0xbc80f5c8	-0.015742198
28	0x3d3707cb	0.044685166
29	0xbb92d280	-0.00448066
30	0x3daa2baf	0.08309113
31	0x3c75f687	0.01501239

model/dense/BiasAdd/ReadVariableOp f4 [64]
0	0xbc739def	-0.014869197
1	0xbc9d2a2f	-0.019185154
2	0xbbb82783	-0.0056199445
3	0xbc858496	-0.016298573
4	0xbc98f8fe	-0.018673416
5	0x3c56872e	0.013093753
6	0xbadd4cda	-0.0016883865
7	0x3bd69663	0.006548689
8	0x3b470a85	0.003037126
9	0xbc8f42b6	-0.017487865
10	0xbc23e7dc	-0.01000401
11	0x3c6b0b9d	0.014346031
12	0xbc46e2c9	-0.012139031
13	0xbbf4b4ff	-0.0074678655
14	0x3cee36cd	0.029078865
15	0xbbde618b	-0.0067865304
16	0xbc83b886	-0.016079199
17	0xbc9102c4	-0.017701514
18	0xbb89ec43	-0.004209073
19	0xbb884581	-0.004158676
20	0x3d392c82	0.04520846
21	0xbcb9231f	-0.022599755
22	0xbcb0252b	-0.021502098
23	0x3bbc3cb9	0.0057445434
24	0x3bbec8b9	0.005822268
25	0xbbe15a50	-0.006877221
26	0xbbd90163	-0.0066224798
27	0xbbebfbc9	-0.007201646
28	0xbb8280bc	-0.0039826315
29	0x3d182caa	0.03715197
30	0x3c9a2af7	0.018819315
31	0xbbafd0b9	-0.005365458
32	0x3bc086f8	0.0058754645
33	0x3c3c49fd	0.01149225
34	0xbbd5e930	-0.0065280423
35	0x3bffce0d	0.0078065456
36	0x3d1da880	0.038490772
37	0x3c87d2d8	0.01658003
38	0x3ba59a06	0.0050537614
39	0x3cbd7796	0.023128312
40	0x3d1031b2	0.035203643
41	0xbb9f2a88	-0.004857365
42	0xbbabae95	-0.0052393177
43	0xbbf957b2	-0.007609331
44	0x3b8b8426	0.0042576967
45	0x39c524f7	0.0003760231
46	0xbc4179a8	-0.01180879
47	0xbc066e8e	-0.008205069
48	0xbbdecd42	-0.006799371
49	0x3b35ec5b	0.0027759287
50	0x3b9fc33e	0.0048755696
51	0x3be9e8e7	0.00713836
52	0xbbdd0cdb	-0.0067459173
53	0xbbb89926	-0.005633491
54	0x3b7c22e4	0.0038472945
55	0x3d5ef76c	0.05443518
56	0xb9543b19	-0.00020239911
57	0xbc41e013	-0.011833209
58	0x3c1ccd10	0.009570375
59	0xba994158	-0.0011692448
60	0x3bb97233	0.0056593656
61	0x3d0d29a7	0.03446355
62	0x3d2f851f	0.042851564
63	0xbc59b059	-0.013286673

model/dense/MatMul1 f4 [64, 10]
0	0xbceedc3b	-0.029157748
1	0x3dcb5f85	0.09930328
2	0x3c5e7328	0.01357726
3	0x3cf7e5c6	0.030260932
4	0xbdd185e0	-0.10230613
5	0xbe18864a	-0.14894977
6	0xbd5659d3	-0.052331757
7	0x3cadd48c	0.021219514
8	0xbe6f3f0e	-0.23363897
9	0xbe2b2a39	-0.16715325
10	0xbe30e072	-0.17273119
11	0xbabb8ca9	-0.0014308888
12	0xbc67caa2	-0.0141474325
13	0xbe437e7f	-0.19091223
14	0x3e36c524	0.1784864
15	0xbd866d4e	-0.06563817
16	0xbd9855b5	-0.07438222
17	0xbde9351c	-0.11387083
18	0xbda0e1f0	-0.07855594
19	0xbe3e54d2	-0.18587044
20	0xbe888e54	-0.26671088
21	0xbe86df9d	-0.26342478
22	0x3e60ea0f	0.21964286
23	0x3ccaa927	0.024738861
24	0xbe65864f	-0.22414516
25	0x3d95d2ef	0.07315623
26	0xbddb6d7e	-0.10714243
27	0x3e0be1d2	0.13660362
28	0x3e81508c	0.25256765
29	0x3cf41ddc	0.029799394
30	0x3e233fa0	0.1594224
31	0x3d144810	0.036201537
32	0xbe26264e	-0.1622555
33	0x3cfd57d6	0.030925673
34	0x3cd4ccd2	0.025976572
35	0x3e17058d	0.14748211
36	0xbe212751	-0.15737654
37	0xbe7dc604	-0.24782568
38	0xbe0c2c63	-0.13688807
39	0xbe372840	-0.17886448
40	0xbdf665a9	-0.12031109
41	0xbe0099f7	-0.12558733
42	0x3be5333d	0.0069946335
43	0xbe71d9ef	-0.23618291
44	0xbd652b75	-0.055949647
45	0x3df53eb8	0.11974853
46	0x3e471657	0.19442116
47	0x3c46c8a5	0.012132798
48	0x3dd2e8a3	0.10298278
49	0xbe1acecb	-0.15117948
50	0x3d978de9	0.07400114
51	0xbdf8ac34	-0.1214222
52	0xbe1967f4	-0.14981061
53	0xbe2643b3	-0.16236763
54	0x3e535df6	0.20641312
55	0xbdfa5477	-0.12223142
56	0x3def3c29	0.116813965
57	0xbe2c345c	-0.16816849
58	0x3dc6f616	0.09714906
59	0xbe52fa01	-0.20603181
60	0x3de56a60	0.1120193
61	0x3d834cad	0.06411109
62	0xbd84545c	-0.06461403
63	0x3b9b2173	0.004734212
64	0xbdf2155e	-0.11820482
65	0x3e2b3719	0.16720237
66	0x3d5fac49	0.054607663
67	0x3e17224d	0.14759178
68	0xbe56f5ab	-0.20992152
69	0x3e5d8fa0	0.2163682
70	0xbe8f182f	-0.27948138
71	0x3a1f02de	0.0006065796
72	0xbd4c2aa4	-0.049845353
73	0x3e46bc39	0.19407739
74	0x3c5a6202	0.013329031
75	0x3d4843bd	0.048892725
76	0x3c9b18cc	0.018932723
77	0x3e396b52	0.18107346
78	0xbe8c91e2	-0.2745505
79	0xbca4784e	-0.020076897
80	0x3e07b6c9	0.13253321
81	0x3e642128	0.22278273
82	0x3e552f7f	0.208189
83	0xbe87f735	-0.26555791
84	0xbe874cdc	-0.26425827
85	0x3d23fe58	0.040037483
86	0x3cf0c2b5	0.029389719
87	0xbe45b09b	-0.19305651
88	0xbdc71c10	-0.09722149
89	0x3e5300cb	0.20605771
90	0x3e01cf54	0.12676746
91	0xbe2c3834	-0.16818315
92	0x3de9cb78	0.11415762
93	0xbe2726ce	-0.16323397
94	0xbe01bf93	-0.12670736
95	0x3d2263f9	0.039646123
96	0x3e75d676	0.24007592
97	0xbd9ae33a	-0.07562871
98	0xbd815882	-0.0631571
99	0x3da7d22a	0.081943825
100	0x3e730f85	0.23736389
101	0x3e8c1e7d	0.2736701
102	0x3e8377bf	0.25677297
103	0xbe7685ae	-0.24074432
104	0x3c2a7e95	0.010406156
105	0x3d240253	0.04004128
106	0xbdd7ce63	-0.10537412
107	0xbe01877d	-0.12649341
108	0x3e29de85	0.1658879
109	0xbddf87f8	-0.10914606
110	0xbe7c6767	-0.2464882
111	0xbe360d66	-0.17778549
112	0x3e1c5c23	0.15269522
113	0x3b4f5c67	0.003164077
114	0x3d9502e6	0.072759435
115	0xbdf1a8ee	-0.11799799
116	0x3e1679bc	0.14694875
117	0x3e6d4036	0.23169026
118	0x3d08bb25	0.0333816
119	0x3e73261f	0.23745011
120	0xbe5eda4c	-0.21762961
121	0x3cb7ced3	0.022437489
122	0xbdb67be2	-0.089103475
123	0x3e75ddef	0.24010442
124	0x3d6eeb66	0.058329962
125	0x3e3a0724	0.18166786
126	0x3e2da461	0.16957237
127	0xbd868c48	-0.06569725
128	0x3d2acb96	0.04169806
129	0xbe41c244	-0.18921763
130	0x3d9d3047	0.07675224
131	0xbe4f594c	-0.20248908
132	0xbdc35f61	-0.095396765
133	0x3c440caf	0.011965915
134	0x3de4e9e3	0.11177423
135	0x3e5819e6	0.2110363
136	0x3e2c8a21	0.16849567
137	0x3d53b627	0.051687386
138	0xbd62eb83	-0.055400383
139	0x3e0bc7ac	0.13650388
140	0xbd2e3040	-0.042526484
141	0x3d54ca8a	0.05195097
142	0x3e8292ea	0.25502712
143	0xbe12315a	-0.14276639
144	0xbe0bf27a	-0.13666716
145	0xbe10db00	-0.14146042
146	0x3e09116d	0.13385554
147	0x3dfd8f91	0.12380899
148	0xbe5ce49d	-0.21571584
149	0x3d38047a	0.044926144
150	0xbcabf75c	-0.020991974
151	0xbd439f71	-0.047759477
152	0x3cb14e79	0.021643864
153	0xbe59043f	-0.21193026
154	0x3e04e833	0.12979202
155	0xbda01a3e	-0.07817505
156	0x3e00ee4f	0.12590908
157	0x3e7d0edd	0.24712701
158	0xbd8d4b4b	-0.068991266
159	0x3e514104	0.20434958
160	0x3d14c4d9	0.03632054
161	0xbe4c6f77	-0.19964395
162	0xbe2c0dfc	-0.1680221
163	0xbe581bb4	-0.21104318
164	0x3e5e2e71	0.21697403
165	0xbe156777	-0.1459025
166	0x3e378ac5	0.1792403
167	0x3d8623a3	0.06549766
168	0xbe349532	-0.17635038
169	0xbe4751d9	-0.19464816
170	0xbbd313ca	-0.006441568
171	0xbe461a4c	-0.19345969
172	0xbe778c28	-0.24174559
173	0xbdc6888e	-0.096940145
174	0x3e579d3a	0.21056071
175	0x3e7ecd18	0.24882925
176	0x3d4c9512	0.049946852
177	0x3e63746c	0.2221238
178	0xbdc51ec2	-0.09625007
179	0x3c1171b7	0.008877209
180	0x3e002044	0.12512308
181	0x3e59ff53	0.21288805
182	0xbe17a96e	-0.14810726
183	0xbc57a4ea	-0.013161877
184	0x3d0050a1	0.031326894
185	0x3e5e41f2	0.21704844
186	0xbd304a62	-0.043039687
187	0x3d96a939	0.073564954
188	0xbdea93e9	-0.11453993
189	0x3e1ebc78	0.15501583
190	0xbdb86e5f	-0.090054266
191	0xbcd257c9	-0.025676625
192	0x3d97094d	0.07374821
193	0x3e189f00	0.14904404
194	0xbe4df130	-0.20111537
195	0x3c9e73bf	0.019342301
196	0xbd992525	-0.07477788
197	0xbe1d1507	-0.15340053
198	0x3da68a16	0.081318066
199	0xbcfb7199	-0.030693816
200	0x3e2e9e18	0.17052495
201	0xbe51eff3	-0.2050169
202	0x3e194390	0.1496718
203	0xbe389f4d	-0.18029518
204	0x3d73ba3e	0.059503786
205	0x3d56bda3	0.052426945
206	0xbe34f881	-0.17672922
207	0xbe6f8dd6	-0.2339395
208	0xbe1eed38	-0.1552018
209	0xbe018595	-0.12648614
210	0xbda635bd	-0.081157185
211	0xbd88348f	-0.0665065
212	0xbd343d3f	-0.04400372
213	0xbe4b7315	-0.19868119
214	0x3dedcfce	0.11611901
215	0xbe2a1d23	-0.16612677
216	0xbe2103d8	-0.15724123
217	0xbe5d8060	-0.21631002
218	0x3dd55eb7	0.10418456
219	0xbe562d32	-0.20915678
220	0x3ca84e02	0.02054501
221	0x3e3e8428	0.18605101
222	0x3e5110aa	0.20416513
223	0x3e1cae6e	0.15300915
224	0x3e4bce22	0.19902852
225	0x3de37bb0	0.11107576
226	0xbc480e33	-0.012210417
227	0x3e03ae01	0.12859346
228	0xbe1f4b94	-0.15556175
229	0x3e6f0400	0.2334137
230	0x3e2f126f	0.17096876
231	0x3e82c6c6	0.25542277
232	0xbe8352f1	-0.25649217
233	0xbe8ca35f	-0.27468392
234	0xbcd90b16	-0.026494544
235	0xbd9f3cbd	-0.07775257
236	0xbe38c2bf	-0.1804304
237	0xbe561a8d	-0.20908566
238	0xbe6b76a0	-0.2299447
239	0xbd9cf87b	-0.076645814
240	0x3e6a72a9	0.22895302
241	0xbd6ca123	-0.05777086
242	0xbe08e1d9	-0.13367404
243	0x3da92ee1	0.082608946
244	0x3dea7742	0.11448528
245	0xbe89b3f4	-0.26895106
246	0x3e88d8a7	0.26727793
247	0x3e09aa04	0.13443762
248	0xbde439e5	-0.11143855
249	0xbe6aa71c	-0.2291531
250	0x3d4f4781	0.0506053
251	0x3e7f2c9d	0.24919362
252	0x3e09d260	0.13459158
253	0x3e8b40ee	0.27197975
254	0xbe62c7e2	-0.22146562
255	0x3de7b917	0.113146

model/dense_1/MatMul f4 [32, 64]
0	0xbe256bce	-0.16154405
1	0xbcd5c6bc	-0.02609574
2	0xbd638b89	-0.055552993
3	0xbe464977	-0.19363962
4	0x3dd62ce3	0.1045778
5	0xbd3dbc32	-0.046322055
6	0x3e49846d	0.19679423
7	0x3e6e4460	0.2326827
8	0xbe008ee7	-0.12554513
9	0xbba7d046	-0.0051212637
10	0x3dc50b22	0.09621264
11	0x3dc46f06	0.095914885
12	0xbe02407d	-0.12719913
13	0xbd06cf74	-0.032912686
14	0x3e75b2c8	0.23993981
15	0xbdf42843	-0.11921742
16	0xbd5a5b52	-0.053309746
17	0x3d9f5fa3	0.07781913
18	0x3e51cc16	0.20488009
19	0x3e1b5ba9	0.15171684
20	0xbd81785f	-0.06321787
21	0xbdcd7f69	-0.10034067
22	0x3d51f493	0.051258635
23	0x3d521b31	0.051295463
24	0x3d6fdf57	0.058562603
25	0xbdceb796	-0.1009361
26	0xbddf5070	-0.10904014
27	0xbe22df45	-0.15905483
28	0x3dd0ae4a	0.10189493
29	0x3e34de51	0.17662932
30	0x3d0384a3	0.032108914
31	0xbe20ddf6	-0.15709671
32	0x3c96e681	0.01842046
33	0x3e5dac54	0.21647769
34	0xbe392ebf	-0.18084238
35	0x3e4daa84	0.20084578
36	0x3dc06fb6	0.09396307
37	0x3cd204cb	0.025637051
38	0x3d41a2c0	0.04727435
39	0x3e54eeb8	0.20794189
40	0xbe21a87b	-0.15786926
41	0xbd91cf96	-0.07119672
42	0xbdbeac45	-0.093102016
43	0xbd864ca5	-0.065575875
44	0x3e7ef301	0.24897386
45	0x3e3dcbcd	0.18534775
46	0xbe243d3f	-0.16038989
47	0xbc93f699	-0.018061923
48	0xbd467dad	-0.048459698
49	0x3e534874	0.20633107
50	0x3e366744	0.1781283
51	0x3e5bf01e	0.21478316
52	0xbdc7329e	-0.09726451
53	0xbd43add2	-0.04777319
54	0xbe290121	-0.16504337
55	0x3af8c8ec	0.0018980778
56	0xbe2ea3fb	-0.17054741
57	0xbdf1d424	-0.11808041
58	0x3e42510a	0.18976226
59	0x3d08725e	0.033312194
60	0x3d87348c	0.066018194
61	0xbca37e8f	-0.019957809
62	0xbd3ecb5c	-0.046580657
63	0x3db8da35	0.09025995
64	0xbb91eb74	-0.004453117
65	0x3cdcdede	0.02696174
66	0xbd851e7b	-0.06499954
67	0x3d26f70e	0.040762953
68	0x3dd754e3	0.10514238
69	0x3e2038f2	0.15646723
70	0x3e24f9d3	0.16110925
71	0x3dabe232	0.08392753
72	0x3e43f658	0.19136941
73	0x3c8f4381	0.017488243
74	0x3c12861c	0.008943107
75	0x3e6ae2e8	0.2293812
76	0xbe137bc8	-0.14402688
77	0x3c48a033	0.012245226
78	0x3daa3af5	0.083120264
79	0xbd608d16	-0.05482205
80	0x3d50bc75	0.050960977
81	0xbe2a0395	-0.16602929
82	0xbd798fdb	-0.060928207
83	0x3e0361ce	0.12830278
84	0x3da0e257	0.07855671
85	0x3d42f784	0.04759933
86	0xbe262521	-0.16225101
87	0x3d8b3d12	0.067987576
88	0xb90b344a	-0.00013275552
89	0xbd981a68	-0.074269116
90	0xbe3fa6f2	-0.18716028
91	0x3e38a7e1	0.1803279
92	0xbab0af52	-0.0013479984
93	0xbb18d639	-0.0023321046
94	0x3d009104	0.031388298
95	0xbe054f9c	-0.1301865
96	0xbd887512	-0.066629544
97	0xbe2593da	-0.16169682
98	0xbe217a41	-0.15769292
99	0x3c9b3cc5	0.018949876
100	0x3d209491	0.039204184
101	0xbc33efd0	-0.010982469
102	0x3e3f2de0	0.18669844
103	0x3d4e7850	0.050407708
104	0x3e0163b0	0.12635684
105	0x3e5ba720	0.21450472
106	0xbe0e3377	-0.1388682
107	0x3e5900d7	0.21191727
108	0x3de8fd0b	0.11376389
109	0x3e23cba5	0.15995653
110	0xbd5831f0	-0.052782
111	0x3d5635f0	0.052297533
112	0x3e3219a2	0.1739259
113	0x3d07920d	0.03309827
114	0xbe3e2469	-0.18568577
115	0x3cab14a4	0.020883866
116	0xbe46bf7a	-0.1940898
117	0x3e61f5df	0.22066449
118	0x3e39c9bb	0.1814336
119	0x3dd300e4	0.10302904
120	0x3de60310	0.11231053
121	0x3be32c6c	0.0069327857
122	0xbd037ae5	-0.032099623
123	0xbbaed813	-0.0053358166
124	0x3b861ca4	0.0040927697
125	0xbc8ac3d0	-0.016939074
126	0x3e6f40c2	0.23364547
127	0xbe2b7270	-0.16742873
128	0x3d745e16	0.05966004
129	0x3e50efd4	0.20403987
130	0xbe09bd90	-0.13451219
131	0x3d84c80f	0.06483471
132	0x3e481097	0.19537579
133	0xbe153ff9	-0.14575185
134	0xbe174872	-0.1477373
135	0xbd202001	-0.03909302
136	0x3dd9b7a7	0.10630732
137	0xbd81cfa1	-0.0633843
138	0x3e005c67	0.12535249
139	0xbdb003e5	-0.08594493
140	0x3e41fa92	0.18943241
141	0xbe3b58e1	-0.18295623
142	0x3e1fc0c1	0.15600874
143	0x3e0fe79e	0.14053199
144	0xbc0531f3	-0.008129585
145	0xbc09266a	-0.008370975
146	0xbe07a06a	-0.13244787
147	0xbe423f6d	-0.18969508
148	0xbe402fc1	-0.18768217
149	0xbdeed303	-0.11661341
150	0xbdc4e870	-0.096146464
151	0x3e4e5991	0.20151354
152	0x3e2cb701	0.16866685
153	0xba80c847	-0.0009825312
154	0x3d5a7a8a	0.05333952
155	0x3d83ccb3	0.06435528
156	0xbde27046	-0.11056571
157	0xbd19a312	-0.03750903
158	0x3e020039	0.12695397
159	0xbd80bb20	-0.06285691
160	0xbbabe567	-0.0052458527
161	0xbd25d51a	-0.040486433
162	0xbe3bfce8	-0.18358195
163	0x3dcee172	0.10101594
164	0x3dc9f41a	0.09861012
165	0xbddc565a	-0.10758658
166	0x3d022dc9	0.031781945
167	0xbe5acf80	-0.21368217
168	0x3da3a1a5	0.079898156
169	0xbd26e814	-0.04074867
170	0x3dacbd2d	0.0843452
171	0x3e1b0858	0.15139902
172	0xbd53dcde	-0.051724307
173	0x3da799c9	0.08183629
174	0x3db648a0	0.08900571
175	0xbe25b2ad	-0.1618144
176	0x3dd30aa1	0.10304762
177	0xbd3b5e10	-0.045744002
178	0x3ddd312e	0.10800396
179	0xbdc859da	-0.09782763
180	0xbdf93bc4	-0.121696025
181	0xbe2c9c18	-0.1685642
182	0xbe282d80	-0.16423607
183	0xbda813f5	-0.082069315
184	0xbdb10a7f	-0.0864458
185	0x3d9889e0	0.074481726
186	0xbe3c600f	-0.18396018
187	0x3e32a366	0.17445144
188	0x3df35522	0.11881472
189	0xbd44c6d4	-0.04804118
190	0x3d75f7ab	0.060050648
191	0x3daea648	0.085278094
192	0x3d988dec	0.074489444
193	0x3d0796d9	0.033102844
194	0xbe0bd94e	-0.13657114
195	0x3dfc4070	0.12316978
196	0xbdb97c06	-0.09056859
197	0x3e7abe6b	0.24486701
198	0x3e3f88a8	0.18704474
199	0x3e6c842f	0.23097299
200	0xbdabf752	-0.08396782
201	0xbdbef357	-0.09323757
202	0xbdc7ae18	-0.097500026
203	0xbc147057	-0.009059987
204	0xbe19db81	-0.1502514
205	0xbd64e38f	-0.05588108
206	0x3cf9a507	0.030474199
207	0x3e58e264	0.21180111
208	0x3e49fd89	0.19725622
209	0x3e278f97	0.16363369
210	0xbd3a008b	-0.045410674
211	0xbe2a3702	-0.16622546
212	0x3d83818f	0.06421196
213	0xbe34df64	-0.17663342
214	0x3da751bd	0.08169887
215	0xbda27779	-0.07932944
216	0xbd957db2	-0.07299365
217	0xbe18e7fa	-0.14932242
218	0x3e35a291	0.17737795
219	0xbe32dd5f	-0.17467259
220	0x3d6fdfce	0.058563046
221	0x3dc6771b	0.09690686
222	0xbe516e34	-0.20452195
223	0xbe4fd632	-0.20296553
224	0x3e3ffc7c	0.18748659
225	0x3db31c1d	0.087455966
226	0x3d62d059	0.055374477
227	0x3df14ebf	0.11782598
228	0x3dcc6416	0.099800274
229	0xbe3bc4d1	-0.18336798
230	0x3c8b477f	0.017001865
231	0x3e265a0c	0.16245288
232	0x3e51fd4e	0.20506784
233	0xbe384549	-0.1799518
234	0x3cb03b12	0.021512542
235	0xbe3a811d	-0.18213315
236	0x3d244775	0.04010721
237	0x3db6bc6c	0.08922657
238	0xbcface94	-0.030616082
239	0x3e08489e	0.13308951
240	0xbdfb7b02	-0.12279321
241	0x3e22ac4a	0.15886036
242	0xbdf9ee34	-0.12203637
243	0x3c413693	0.011792797
244	0xbe4b8cca	-0.19877926
245	0xbd64bb45	-0.055842657
246	0xbe059f68	-0.1304909
247	0xbd95d951	-0.073168404
248	0x3e6a0a8d	0.22855587
249	0x3d592b4c	0.053019807
250	0x3d8fc357	0.0701968
251	0xbe0db592	-0.13838795
252	0xbe134415	-0.1438144
253	0x3dc1e658	0.09467763
254	0x3db8880c	0.09010324
255	0x3df4009d	0.119141795

model/dense_2/MatMul f4 [8, 32]
0	0xbeb525ec	-0.35380495
1	0x3eb3aaf8	0.35091376
2	0x3eb3b130	0.3509612
3	0xbe59d8aa	-0.21274057
4	0xbc0c0633	-0.0085464
5	0x3d48c062	0.049011596
6	0x3e2df7c1	0.16989042
7	0xbd689b50	-0.056788743
8	0x3e722a47	0.2364894
9	0xbc88a63d	-0.016680831
10	0x3e92e7ef	0.28692576
11	0x3ea27862	0.3173247
12	0xbe4d929a	-0.20075455
13	0x3d0e1bae	0.034694366
14	0xbdc4b2a6	-0.09604387
15	0x3ea97f6f	0.33105037
16	0x3e37ca60	0.17948294
17	0xbd4c9a95	-0.04995211
18	0xbcb35f79	-0.02189611
19	0x3ea09b8e	0.3136868
20	0xbe93355e	-0.28751653
21	0x3e04927a	0.12946501
22	0xbe0aa83c	-0.13540739
23	0x3ddcae64	0.1077545
24	0xbe615a60	-0.22007132
25	0xbea4a3c3	-0.3215619
26	0xbce17541	-0.027521731
27	0x3df45ce4	0.1193178
28	0xbda67dac	-0.08129439
29	0x3db6a179	0.08917517
30	0xbec54df4	-0.38536036
31	0x3a7834b5	0.0009468303
32	0xbeb07f9c	-0.34472358
33	0xbe9d6518	-0.3074119
34	0x3e8267b0	0.25469732
35	0x3e5ff06c	0.21869057
36	0x3da2c982	0.07948591
37	0xbebb2259	-0.36549643
38	0x3d1d07ab	0.03833739
39	0x3e51f2d7	0.20502792
40	0xbe63a765	-0.22231825
41	0xbe931e1e	-0.28733915
42	0xbe66c4a5	-0.22535951
43	0x3ea71bd8	0.3263843
44	0x3ea0811e	0.3134851
45	0x3e591475	0.2119921
46	0xbe889889	-0.26678875
47	0xbdeec4de	-0.11658643
48	0xbe2df418	-0.16987646
49	0x3e5ba263	0.21448664
50	0x3e5d97c9	0.21639933
51	0xbe23aabd	-0.159831
52	0x3cedcb12	0.029027496
53	0x3e8cec4c	0.2752403
54	0x3e58cec5	0.21172626
55	0x3e6457d6	0.22299132
56	0x3ea14ceb	0.31503996
57	0xbb7599e9	-0.003747577
58	0xbd4be19a	-0.049775697
59	0xbe580972	-0.21097353
60	0xbed0fa14	-0.40815794
61	0x3eba9e5e	0.3644895
62	0x3e7e4ed1	0.24834754
63	0xbd952782	-0.07282926
64	0xbead5062	-0.3385039
65	0x3ebce05a	0.36889917
66	0xbcbb0154	-0.022827782
67	0x3e8d369e	0.27580732
68	0xbe030c88	-0.12797749
69	0x3eaca91a	0.33722764
70	0xbc78b1b7	-0.015179089
71	0xbe771e4b	-0.2413265
72	0xbdeeb2eb	-0.1165522
73	0x3dec17c7	0.11527973
74	0xbe913e97	-0.28368065
75	0x3cfe3e13	0.031035459
76	0x3e77ac6d	0.24186869
77	0xbeb48f5c	-0.35265625
78	0x3e051303	0.12995534
79	0x3ebf883e	0.37408632
80	0xbe30b772	-0.17257479
81	0xbd4d486b	-0.05011789
82	0x3e88ecac	0.26743066
83	0xbd692d9a	-0.056928255
84	0x3ed8e699	0.42363432
85	0xbe155ae0	-0.14585447
86	0x3eb848ff	0.35993192
87	0xbd550ddc	-0.05201517
88	0x3eb38747	0.35064146
89	0xbe6245d3	-0.22096948
90	0xbe9258aa	-0.2858327
91	0xbd5d4bd5	-0.054027397
92	0x3e833830	0.25628805
93	0x3e5af4a6	0.21382388
94	0x3e4ce08c	0.20007533
95	0x3e891299	0.26772
96	0xbd9cd82c	-0.07658419
97	0x3eb6cc01	0.35702518
98	0x3e097fae	0.13427612
99	0xbd816896	-0.06318776
100	0x3dd86083	0.10565283
101	0xbe9d1a6c	-0.3068422
102	0x3ea15968	0.31513524
103	0xbe88a6a9	-0.26689652
104	0x3e9f0b16	0.31063145
105	0xbe813f5a	-0.25243646
106	0xbe5a5974	-0.21323186
107	0x3da21ec0	0.07916021
108	0xbce94329	-0.028474407
109	0x3ea89c48	0.32931733
110	0xbe7146cf	-0.23562168
111	0x3ddb52d4	0.107091576
112	0xbe2c932c	-0.16853017
113	0x3e24a8f4	0.16080076
114	0xbeb58287	-0.35451147
115	0xbe77176e	-0.24130031
116	0x3e1eef1e	0.15520903
117	0x3e7c3437	0.24629293
118	0xbe2f51d0	-0.17121053
119	0xbd035662	-0.032064803
120	0xbe89c29b	-0.26906285
121	0xbe5a2257	-0.21302162
122	0xbea7b298	-0.32753444
123	0xbe69c92c	-0.22830647
124	0x3c2b6ea7	0.010463393
125	0xbc9323b8	-0.017961368
126	0xbc8008bd	-0.015629167
127	0xbea8783c	-0.32904232
128	0x3de522a2	0.11188246
129	0xbd4d10dc	-0.050064906
130	0xbec20613	-0.3789526
131	0x3e85b1be	0.2611217
132	0x3eb7eba5	0.3592197
133	0xbc1b2a34	-0.009470511
134	0x3ecd9ed8	0.4016025
135	0x3ad9de41	0.0016622023
136	0xbde062fb	-0.10956379
137	0x3d106508	0.0352526
138	0x3e8a1aac	0.26973474
139	0x3da08c17	0.0783922
140	0xbe85a4c2	-0.26102263
141	0x3ea04f03	0.3131028
142	0x3da4c4fe	0.08045386
143	0x3bc7635f	0.006084844
144	0x3ea163c0	0.31521416
145	0xbe9d5fcc	-0.3073715
146	0x3ea1be57	0.3159053
147	0x3e8c5e64	0.27415764
148	0xbe1a5f91	-0.15075518
149	0xbe23206d	-0.15930338
150	0x3e5841ae	0.21118805
151	0xbdbe2a23	-0.09285381
152	0xbd85c619	-0.06531925
153	0xbeb0bbb7	-0.34518215
154	0xbeaaeaf8	-0.33382392
155	0xbe6fbe8e	-0.23412535
156	0xbe84fec1	-0.25975612
157	0x3eb50558	0.3535564
158	0x3de4c7a1	0.11170889
159	0xbe5298ee	-0.2056615
160	0x3ebbeb18	0.367028
161	0x3e01db05	0.12681206
162	0x3e920bf1	0.28524736
163	0x3ec8fccd	0.39255372
164	0xbc940aa4	-0.01807148
165	0xbe526d1e	-0.20549437
166	0x3d792009	0.060821567
167	0xbd5bc4b7	-0.0536544
168	0xbea64817	-0.32476875
169	0x3d37edb7	0.044904437
170	0x3eb406e1	0.35161498
171	0x3e54c86a	0.20779577
172	0x3e2d4f1c	0.16924709
173	0xbe5e5c9e	-0.21715018
174	0xbe50c9e2	-0.20389512
175	0x3dcec79b	0.100966655
176	0x3d8c9214	0.068638
177	0xbe0c34d6	-0.1369203
178	0xbec10e52	-0.37706238
179	0xbe45a0dd	-0.19299646
180	0xbcb72613	-0.022357022
181	0xbdf67c60	-0.120354414
182	0x3ec01409	0.37515286
183	0x3d5680e2	0.052369006
184	0xbc398aa8	-0.011324562
185	0xbe9b47e1	-0.30328277
186	0x3eba62f4	0.3640362
187	0xbe0c4fde	-0.13702342
188	0x3e3ae237	0.18250357
189	0xbe43583f	-0.19076632
190	0xbc58a903	-0.013223889
191	0x3dbaa6ae	0.09113823
192	0x3eb21c4c	0.34787214
193	0xbe855ba4	-0.2604648
194	0xbea596c1	-0.3234158
195	0x3e35bf82	0.17748836
196	0x3e8310dc	0.255988
197	0x3e5682dd	0.20948358
198	0x3ed783ed	0.4209284
199	0x3d02e43d	0.031955946
200	0xbde94498	-0.11390036
201	0x3d9a6669	0.075390644
202	0xbe02b774	-0.12765294
203	0x3d1fd76b	0.039023798
204	0xbdf17cc3	-0.117913745
205	0xbe705ba0	-0.23472452
206	0xbe9b2ab6	-0.30306023
207	0x3dabc444	0.08387044
208	0x3e8c6898	0.2742355
209	0x3e1e672c	0.15469044
210	0xbe60f21f	-0.21967362
211	0x3ebbc14b	0.36670908
212	0x3e55acfe	0.20866773
213	0x3e78f290	0.2431128
214	0x3ebece2c	0.37266672
215	0x3eca95d2	0.3956743
216	0x3e055521	0.13020755
217	0xbe94fa73	-0.29097328
218	0xbeadb99b	-0.33930668
219	0x3cc05607	0.023478521
220	0x3d4071c9	0.046983514
221	0x3e045b0e	0.1292536
222	0x3ebb8018	0.36621165
223	0x3cfeeaac	0.03111776
224	0x3e84ca07	0.25935385
225	0x3e907652	0.2821527
226	0x3e58b50b	0.21162812
227	0x3e1957a6	0.14974841
228	0x3dbd1a02	0.09233476
229	0x3e29e366	0.16590652
230	0x3e30b11c	0.17255062
231	0xbd1c3b6d	-0.03814261
232	0xbe6c8c9c	-0.23100513
233	0xbe40ce55	-0.1882871
234	0xbcaff902	-0.02148104
235	0xbe9f1d6f	-0.31077144
236	0x3e044492	0.12916782
237	0xbc93607d	-0.017990345
238	0xbe923f6a	-0.28564006
239	0x3e137f5e	0.14404055
240	0x3e307883	0.17233472
241	0x3ea11fef	0.31469676
242	0xbde20d1b	-0.11037656
243	0x3e2f367e	0.17110631
244	0x3e2f533f	0.171216
245	0x3ec4668d	0.3835949
246	0xbe1ab76a	-0.1510903
247	0xbe79264e	-0.24331018
248	0xbe953be2	-0.2914725
249	0xbe63ba3b	-0.2223901
250	0xbe658e85	-0.22417648
251	0xbdf3b47f	-0.11899661
252	0xbe70e4a2	-0.23524716
253	0xbeb5f28e	-0.35536617
254	0x3e896651	0.26835874
255	0x3e5aaea2	0.2135568

model/dense_3/MatMul f4 [1, 8]
0	0xbdde29a9	-0.1084779
1	0xbf244a8f	-0.6417627
2	0x3e98715d	0.2977399
3	0xbcdf2776	-0.027240496
4	0x3e9868e2	0.2976752
5	0x3f29d2de	0.6633738
6	0x3ef78455	0.4834315
7	0x3f23ef37	0.6403689
